eeg_finetuner/lightning_logs/version_1/checkpoints/epoch=9-step=40.ckpt (torch, 541022 bytes, 18 tensors)

backbone.network.0.weight f4 [256, 128]
000000 f3 51 17 3d 4f 3f b4 bd d5 cb dd 3c 95 3d a0 bd
       0.036943387 -0.08801138 0.027074734 -0.07824246
000010 30 bc 29 3d dc 5c f7 bc ad 50 4e bd b4 e8 a2 3d
       0.041439235 -0.030195646 -0.050369907 0.07954541
000020 67 d8 01 3d 67 e4 62 bd 9a b0 61 bd 96 2f 4a 3d
       0.031700518 -0.055393603 -0.05510006 0.049361788
000030 10 53 a0 3d 6a f8 a0 3a d3 6a 92 bc e8 21 dd 3c
       0.07828343 0.0012281064 -0.017873203 0.026993707
000040 67 cf 0b bc b9 cb 5d 3d b0 75 03 bd 89 29 23 3d
       -0.008533335 0.054149363 -0.032094657 0.039834533
000050 47 7a 8c 3c 8d 02 8d bc 0f d2 2c 3d b3 d5 fd b9
       0.01714815 -0.01721313 0.042192515 -0.0004841514
000060 f6 a1 80 bd a3 21 62 3c 69 57 71 3c 0c c4 99 3d
       -0.062808916 0.013801965 0.014730313 0.07508096
000070 3f f0 a0 3d 39 17 85 bd 78 85 26 bd 6f 92 d3 bb
       0.07858323 -0.0649857 -0.04065463 -0.006456665
000080 bd a4 58 bd f8 d6 48 bd b1 f1 c3 3c cc 5d 34 3d
       -0.05289148 -0.049033135 0.023918958 0.044034764
000090 3e 37 9d 3d 9b 02 09 bd f3 42 a7 3d 5d 22 41 bd
       0.07676552 -0.03344975 0.081670664 -0.047151912
0000a0 5b e9 b2 bd 96 2f e1 3a c1 be 48 3b c8 54 5a bd
       -0.08735915 0.0017180319 0.0030631276 -0.05330351
0000b0 19 34 87 bd ce ce 42 3d d3 3d 6e bd 56 3e 81 3d
       -0.06601734 0.047560506 -0.05816443 0.06310718
0000c0 96 5b 21 bd 44 e6 3b bd 9a ea 89 bd 19 5e 16 3d
       -0.039393984 -0.045873895 -0.067342 0.036710832
0000d0 7a af b4 3c ee d7 64 bd 3a 57 5d bd 7d ea 5c bc
       0.02205633 -0.05586999 -0.054038264 -0.013483641
0000e0 17 fb 7a bd b4 8f 62 3d 34 9e 5f bd cb d3 bf 3c
       -0.061274614 0.055312827 -0.054594234 0.02341642
0000f0 32 68 12 bc 7f ff 55 3c ff aa ea bb 59 9e 9c 3c
       -0.008935975 0.013061403 -0.0071614976 0.019118475
000100 60 57 5a 39 04 ac b3 3d bb ca 15 bd 7a d0 aa 3c
       0.0002082265 0.08773044 -0.036570292 0.020851362
000110 38 ef 79 3c 33 f1 c0 3c a6 29 25 3d 2a e8 96 3d
       0.015254788 0.023552513 0.040322922 0.073685005
000120 ac d8 ad bd 0b 0f 8c bd f8 bf a4 3d 7a a4 9c 3d
       -0.084885925 -0.06838807 0.08044428 0.07648559
000130 4b ee 20 bc 27 fa 67 3d 46 c4 85 bd 2f 52 89 3d
       -0.0098224385 0.05663505 -0.06531577 0.067051284
000140 87 83 14 bd 3e 3a 49 3d 9d c8 a4 bd 57 d8 86 bd
       -0.036258247 0.04912781 -0.080460764 -0.06584232
000150 9f ba ee 3b ed 62 7b 3d 09 05 66 3d 5b 9a d9 bc
       0.0072854306 0.06137364 0.056157146 -0.02656286
000160 67 88 9a 3d 91 66 7e bc 40 e1 41 3d 19 1a 69 bd
       0.07545548 -0.015527383 0.047333956 -0.056909654
000170 1a fa 77 bc 0b 1f 2f bd 8d 24 24 bd 82 2d 37 bc
       -0.015135312 -0.042754214 -0.04007392 -0.0111802835
000180 67 99 2c 3d 43 47 31 3c 5f 0f 11 3d 87 f8 2c 3c
       0.042138483 0.010820213 0.03541505 0.0105573
000190 29 f0 20 bd 39 49 23 bd 91 2a 95 3d cd f6 85 bd
       -0.039291535 -0.039864752 0.072835095 -0.06541214
0001a0 41 c0 8b 3d e5 11 64 3d 5d 2f 70 3d 3b 54 e4 3c
       0.06823779 0.055681128 0.05863892 0.027872195
0001b0 08 f8 9e 3d 74 c2 fd 3c f7 92 55 bd e0 8b 8d 3d
       0.07762152 0.030976512 -0.05214211 0.06911445
0001c0 57 9b ec bc ec bc 19 bd bf d0 89 3d 12 19 76 3d
       -0.028882666 -0.037533686 0.06729268 0.060082503
0001d0 44 49 84 3c 42 27 2e bb 94 aa 37 bc f3 36 b3 bd
       0.016148217 -0.0026573692 -0.011210103 -0.08750715
0001e0 8a 24 5f 3d 92 b5 5d bd 78 27 af 3d a6 23 7b bc
       0.054478206 -0.054128237 0.0855245 -0.0153283235
0001f0 c7 25 2a 3a 12 f8 a8 bd bc 64 99 bc d6 a9 9c bc
       0.00064906146 -0.08250441 -0.018724792 -0.019123953
000200 54 ba 5a bc fd d7 78 bd 85 0e f8 bc ab 52 17 bb
       -0.013350088 -0.060752857 -0.030280361 -0.0023090045
000210 b8 41 9b bc a6 df 04 3d 44 5e df 3c 6f d7 2f bc
       -0.018952236 0.03243985 0.027266629 -0.010732516
000220 b4 da 7d 3d 35 79 8b bd 8a 8e 91 3c 55 15 46 bd
       0.06197615 -0.06810228 0.017768163 -0.048360188
000230 07 a7 81 3d 85 7b 97 bd e0 a6 88 bd af ee 8f 3d
       0.06330686 -0.07396606 -0.06672454 0.07027947
000240 a8 61 1a bc f4 68 3f 3d 5c 23 23 bc 9d d6 0e 3b
       -0.009422697 0.04673095 -0.009957161 0.00217954
000250 c3 32 23 3d 1d 6d b1 3c d7 9a da 3c 97 cf af bc
       0.039843332 0.021658475 0.026685162 -0.021461291
000260 ea d6 b1 3d 55 8a 8e bc 02 44 7e 3c 0a 62 21 bc
       0.0868357 -0.017399946 0.015519144 -0.0098500345
000270 a5 eb 82 3c 36 e4 99 bc 06 e7 9b 3d 9a b5 40 3d
       0.015981505 -0.018785577 0.076124236 0.04704819
000280 07 28 5d 3d b5 a9 fc 3c 06 21 a6 bd bd 38 86 3d
       0.05399325 0.030842641 -0.081117675 0.06553791
000290 29 91 c5 bc d4 6b 1b 3d a6 0c ab ba 2b ca 4e bd
       -0.02411707 0.03794463 -0.0013050034 -0.05048577
0002a0 e6 3e 85 3d 6a a7 ea bc 65 75 21 3c 1b ec ab 3d
       0.065061375 -0.028644282 0.009854649 0.08394643
0002b0 c5 e3 83 bd 18 d5 13 3d f1 75 89 bc a1 99 af 3d
       -0.06439928 0.036091894 -0.016779872 0.08574224
0002c0 8b b2 b0 3d af 51 b0 3d 64 96 51 bd a4 18 ce 3c
       0.08627804 0.0860933 -0.051168814 0.025158234
0002d0 ff dd 33 bc 62 84 86 3d 38 dc 92 bd 6e c2 9c 3d
       -0.010978221 0.06568219 -0.0717091 0.07654272
0002e0 5d 1d 97 3d ee 41 ae bd 9c 28 a6 3d c1 15 5f 3d
       0.073786475 -0.08508669 0.081132144 0.054464106
0002f0 f3 1e 9a 3d 5c f4 09 bc bf a4 72 3d 16 31 05 3d
       0.07525434 -0.008420076 0.059239145 0.032517515
000300 3c 3e 1e bc 2b 1a 9b ba 48 1a 92 bc 70 3e 08 3d
       -0.0096583925 -0.001183336 -0.017834798 0.03326267
000310 bb be dd 3c c4 19 0b 3c eb 84 87 3d 53 4b a1 3c
       0.027068486 0.00849003 0.06617149 0.019689238
000320 fe 63 69 bd e4 4f ab 3d fe 47 a2 bd cb 92 63 3d
       -0.056980126 0.08364847 -0.07923888 0.055559915
000330 c7 42 8b bc e7 43 b4 3d cb 79 6b bd 87 49 9a 3d
       -0.016999615 0.08802014 -0.057489198 0.075335555
000340 e3 bc 33 3d 57 66 1a 3d 03 0a 9b bd 43 47 c6 3c
       0.04388131 0.037695255 -0.07570269 0.024203902
000350 ec ae 5f bd 11 a0 b6 3c 4b cd a3 3d 63 86 84 3d
       -0.054610178 0.022293122 0.07998141 0.06470945
000360 99 f7 24 bb f1 cb 14 bd 73 f0 00 3b 6d dd 56 bd
       -0.0025171994 -0.036327306 0.001967457 -0.05245726
000370 4a 53 9f bd d7 55 8a 3d 50 0d 11 bc bd 13 51 bd
       -0.07779558 0.06754654 -0.008853272 -0.051044215
000380 99 0c 90 bd a2 b5 3a bd c6 fc 9f 3c 5d 1e 6b 3d
       -0.07033653 -0.045583375 0.019529711 0.057402004
000390 df dc 2f 3d a5 f4 96 3c d4 fa ac 3b a6 50 12 bd
       0.04293525 0.018427202 0.0052789245 -0.035721444
0003a0 16 bd ad bd 31 a2 59 3d 7e 59 74 38 04 da 66 3d
       -0.08483331 0.053133193 5.825748e-05 0.05636026
0003b0 11 19 40 3d 13 da 9c bd 49 cf 34 3d f8 c4 38 3d
       0.046898905 -0.07658782 0.044142995 0.04510972
0003c0 1d 3b f3 3b 90 d5 6d bd d7 5b 9a 3d c2 84 d7 bc
       0.0074228183 -0.058064997 0.07537048 -0.026308421
0003d0 ea 8d 51 bd 23 7d 94 3d 96 b0 2f 3b b1 a4 f8 3a
       -0.05116073 0.072504304 0.0026808134 0.001896998
0003e0 30 6d 3c 3c 14 d4 aa bd 69 e0 b1 3d 91 28 ac bd
       0.011500642 -0.08341232 0.08685381 -0.08406175
0003f0 e0 17 b3 3c 32 d8 80 bd 80 eb 80 ba 3e 35 ff 3c
       0.02186197 -0.06291236 -0.000983581 0.031153318

backbone.network.0.bias f4 [256]
000000 96 88 17 bc e3 61 55 bd ad 1a 58 3d b7 39 42 3c
       -0.009248873 -0.052095305 0.052759815 0.011854581
000010 05 c2 2f bd 88 eb 0b 3d e6 f1 7c bd cf 71 44 bd
       -0.04290964 0.034160167 -0.06175413 -0.0479601
000020 52 13 99 bd 6f fe a5 bd bc 3f b8 3b ec 15 7c bc
       -0.07474388 -0.0810517 0.005622832 -0.015386086
000030 53 81 24 bd ce ca 70 bd 73 1f a5 3d 79 da a0 bc
       -0.040162396 -0.05878716 0.08062639 -0.019635426
000040 90 d0 57 3d c8 2f 4d 3c 62 6c 31 bc 12 e1 54 bd
       0.052689135 0.012523599 -0.010829063 -0.051972456
000050 2b 70 1f 3d 69 7d 98 3d b2 ac 25 bd 4b e1 bf bc
       0.03892533 0.07445795 -0.0404479 -0.023422858
000060 0f 4a 96 bd 24 a0 87 bd 1b 17 80 bd 8e 53 49 bc
       -0.07338344 -0.06622341 -0.06254407 -0.012287987
000070 d4 48 29 3d b7 c2 23 3d a4 26 8e bd ca 38 6c 3c
       0.04132922 0.039980616 -0.06940964 0.014417836
000080 87 2b 10 3c f2 ef b6 3b d1 c8 7b bd 64 c9 c6 3c
       0.00879944 0.005582803 -0.06147081 0.024265952
000090 f6 f2 71 3d 22 52 85 bd 0d 54 1f bd 5f 22 8f 3d
       0.059069596 -0.06509806 -0.038898516 0.06988978
0000a0 de 6e a1 3d d2 bc 02 3d aa 1a 84 3c 82 53 8a bc
       0.07882474 0.031918354 0.016125996 -0.016885523
0000b0 13 e1 a3 3d 2d a7 70 bd 3e 1b 40 bd e9 7b cc bb
       0.08001914 -0.05875318 -0.04690098 -0.006240357
0000c0 15 e2 73 3c ab fd b3 bd 4c 21 be bc 4a ef 35 3d
       0.014885445 -0.08788618 -0.023209237 0.044417657
0000d0 7a bd 8c bb 76 d7 97 bd de f2 4a 3d 06 05 e6 bc
       -0.0042950483 -0.07414143 0.049548022 -0.028078567
0000e0 62 6d 97 bd 7d 87 5b 3d 8d 05 30 bd 4d a4 ee 3c
       -0.0739391 0.05359601 -0.042974044 0.02913108
0000f0 66 6b 85 3d 26 95 9d 3b 06 0f f9 bc 39 3f 9a bd
       0.06514625 0.0048090396 -0.030402672 -0.0753159
000100 3d ec a1 bd ff fa 83 3d c4 d8 5e 3d 87 20 0d 3d
       -0.07906387 0.06444358 0.054405943 0.03445485
000110 15 34 07 3c 90 10 37 bb 38 e6 9e 3d 9c a8 ac 3d
       0.008252163 -0.0027933456 0.077587545 0.08430597
000120 da 61 de 3c ff 0c 69 3d 41 3d 5f bc 87 48 9c bd
       0.027146269 0.05689716 -0.013625444 -0.07631021
000130 0e 59 5e 3d 45 5f 1a 3c 9e 9e a5 3d ca 4f 99 3d
       0.054284148 0.009422128 0.080868945 0.07485922
000140 ad a6 3c bd 2f db 97 3c 3a 0b 52 3c 31 fa 6c 3d
       -0.046057392 0.018537132 0.012820059 0.05785579
000150 79 49 a4 3c fd 15 61 3d 7b 9a 4a 3d cf 1c 8b 3d
       0.020054566 0.05495261 0.04946373 0.06792604
000160 bf b3 80 bd 92 b2 8a 3b b1 28 22 3c db 45 05 3c
       -0.06284284 0.004232713 0.009897397 0.008134331
000170 f3 19 81 3d 51 64 10 bd f3 bf af bd ed 71 9c bd
       0.063037775 -0.03525192 -0.08581533 -0.07638917
000180 43 1f 60 bc b0 dc b0 bd 10 0a bc 3a 70 8a 9b bd
       -0.013679328 -0.08635843 0.001434626 -0.07594764
000190 5d c0 84 bd 0c 7b ff 3b 16 cf 93 bd b5 a5 ad 3d
       -0.06482003 0.0077966508 -0.07217233 0.08478872
0001a0 97 d3 09 3d fb 37 6a 3d 6e 72 3d 3d 6b 44 ef 38
       0.033649053 0.057182293 0.046251707 0.00011409152
0001b0 1b ed 86 bb 52 24 aa bd 8b 67 10 b9 4e fe 0b bd
       -0.0041176206 -0.08307709 -0.00013771483 -0.03417807
0001c0 5a e1 a3 3b 92 6e 8f bd c6 b3 a9 bd b6 4c 80 bc
       0.0050012292 -0.070035115 -0.08286242 -0.015661579
0001d0 5e 83 1c 3c 1e 97 77 bd 51 aa b2 3c 00 ec 13 3d
       0.009552805 -0.06044685 0.021809729 0.03611374
0001e0 5f 29 c9 3c 66 ad 9f 3d 1b 59 ff 3b 53 45 5a 3d
       0.02455586 0.07796745 0.0077926046 0.05328877
0001f0 43 d1 a6 3d 3f c2 81 3d 95 fd 03 3d cb 8e 97 3c
       0.08145382 0.063358776 0.032224257 0.018500706
000200 b2 0c 00 3d ac 96 19 bd df 95 3e bd 14 bf 41 3c
       0.031262107 -0.037497208 -0.046529647 0.011825342
000210 59 25 6f bc cc 60 80 bc 25 20 8a bd db ff 58 bd
       -0.014596307 -0.015671156 -0.06744412 -0.052978378
000220 d3 26 f4 3c 2c ab 89 3c ca f6 9c bd 43 9c 99 3d
       0.02980367 0.016805254 -0.07664259 0.07500508
000230 cb 3b ad 3d f3 b8 e4 bc d1 66 31 bc 08 e8 9f 3d
       0.0845867 -0.027920222 -0.010827736 0.07807928
000240 bc 00 8c bd 60 e9 6a 3d 1b 46 3f bd af c6 14 bd
       -0.068360776 0.05735147 -0.046697717 -0.036322292
000250 13 c8 e6 bc e3 1d 65 3c 84 f8 39 bd 2f 96 4c bd
       -0.028171575 0.013984176 -0.04540302 -0.049947914
000260 6f 96 3a bc 81 60 49 bc a5 51 83 3c 0a 61 f6 3b
       -0.011388405 -0.012291075 0.016030142 0.007518892
000270 4a e5 8a 3d 52 ff 35 bd 8b 83 8d bd 26 b0 e9 3c
       0.06782015 -0.044432946 -0.069098555 0.028526377
000280 6a 83 1d bd d1 16 f2 bb 0c 61 91 bd 91 d6 b0 3b
       -0.038455404 -0.007387974 -0.07098588 0.005396672
000290 64 29 02 bc db 90 a2 bc 51 5a a3 bc 89 2a ac bd
       -0.007944439 -0.019844463 -0.019940527 -0.084065504
0002a0 03 08 ac 3d 99 7f 8a bd f3 bc d3 3c b4 01 ad 3d
       0.083999656 -0.067626186 0.025846934 0.084475905
0002b0 33 63 23 3d 3e 79 90 3c c1 e1 88 bd a2 37 32 3c
       0.039889526 0.017635938 -0.06683684 0.010877522
0002c0 de 7b 99 3c e0 7c 1d 3d 09 4d 9c 3d 7d 9e 6c bd
       0.018735822 0.03844917 0.07631881 -0.057768334
0002d0 4e f4 9a 3d 3f 6f 37 bd ed bd a8 3c ef 22 70 bd
       0.07566129 -0.044783827 0.020598376 -0.058627065
0002e0 88 38 12 3d 0d 07 96 bd 9c bd 9b 3d 50 31 e9 3b
       0.035698444 -0.073255636 0.076045245 0.007116474
0002f0 e0 7b a4 3c a1 ca 74 bd ed 2b ec bb 7a 5c 6e 3d
       0.0200786 -0.059763554 -0.007207385 0.05819366
000300 60 48 d1 bc 8e a5 a8 bb 7a 96 71 3c 21 1a 2d 3d
       -0.025547206 -0.005146689 0.014745349 0.042261247
000310 e7 01 7c bc 90 cc f6 3c 81 07 02 3d 37 c4 95 3c
       -0.015381313 0.03012684 0.031745438 0.01828204
000320 f0 f2 5a bc 6b be c4 3c 10 88 9b 3d 13 cc 1a 3d
       -0.013363585 0.02401658 0.07594311 0.037792277
000330 d3 43 a7 3d b3 8f bd bc 97 a4 a7 3d 61 52 4a bc
       0.08167233 -0.02313981 0.0818569 -0.012348742
000340 85 c4 a1 bd 81 2b 96 bd b2 27 7d 3d 12 5b 82 3d
       -0.07898811 -0.073325165 0.061805435 0.063650265
000350 7c 0f ed bc 19 af a4 bc 86 2a ad 3d 70 9d 27 bd
       -0.028938048 -0.020103024 0.08455376 -0.04092163
000360 47 4b cb bc eb f9 a1 3d 8b 65 73 3d 4f 06 52 3d
       -0.024816168 0.07908996 0.05942301 0.051275548
000370 b8 79 1a bd 58 e3 31 3d 7c aa 91 bd 2f 4f 20 3d
       -0.037713736 0.043429703 -0.071125954 0.039138015
000380 52 47 7e 3c a2 21 93 3b 49 a6 1f 3d 82 b6 66 bc
       0.015519934 0.0044900933 0.03897694 -0.014081599
000390 61 79 6e bd 8f 8f 0c bc 6d 38 a6 3c 98 a6 a2 3d
       -0.058221225 -0.008579149 0.020290578 0.079419315
0003a0 e2 e6 85 bd ff ac 80 bd e9 1e 83 3d e4 97 c7 3b
       -0.06538178 -0.062829964 0.0640238 0.006091105
0003b0 2b 40 9d 3d e3 97 9a 3d 8e 22 8a 3d 68 12 76 3d
       0.07678255 0.07548501 0.06744872 0.060076147
0003c0 c7 c3 ac bd d3 01 15 3d 31 b2 0b bd 63 dc 8d bc
       -0.08435779 0.036378693 -0.034105483 -0.017317003
0003d0 c3 bd 9e 3d d6 58 38 3d 20 42 63 bd 6a ee 64 bd
       0.07751038 0.045006596 -0.055482984 -0.055891432
0003e0 8b f4 b6 bc ed 1d 94 3d b4 d9 a7 3d 46 6f 99 bc
       -0.022333404 0.072322704 0.081958205 -0.018729817
0003f0 80 77 f0 3c bf 4a b1 bd c7 82 8d bd 04 04 8e bd
       0.029353857 -0.08656835 -0.069097094 -0.0693436

backbone.network.3.weight f4 [128, 256]
000000 46 66 49 bd 38 34 3f 3d 6a 09 2e 3d 4e da 41 bd
       -0.0491698 0.04668066 0.042489447 -0.047327332
000010 40 25 05 bc 34 76 39 3d cc e7 bd 3c 00 6c 65 bb
       -0.008126557 0.045278743 0.023181818 -0.0035007
000020 3c 85 53 bd 28 ad bb 3c e8 38 80 bc 54 8d 2c bd
       -0.051640734 0.022909716 -0.015652135 -0.04212697
000030 04 79 0e bd a0 1d 43 bb 58 a5 20 bc 1a 61 19 bd
       -0.03478338 -0.0029772297 -0.009805046 -0.03744612
000040 c4 fc 7d bd 7a c4 70 bd 2c de b1 bc 94 74 de 3c
       -0.062008634 -0.058781125 -0.021712385 0.027155198
000050 58 9d 7f bd c4 b0 2f 3d 30 9f 46 bd 14 71 c4 bc
       -0.062405914 0.042893186 -0.048491657 -0.023979701
000060 d4 d7 06 3d 42 a1 29 bd 2a 84 69 3d c4 80 26 3d
       0.032920673 -0.041413553 0.057010807 0.040650144
000070 e0 b8 70 bc 60 2b cc 3c fc b4 a1 3c 50 ba 05 3c
       -0.014692515 0.024923027 0.01973962 0.008162096
000080 06 c5 4e bd 20 41 e2 3b c0 a2 5d bd 54 cb 2c 3d
       -0.050480865 0.006904736 -0.05411029 0.042186096
000090 90 ea ce 3b de 77 33 3d 54 22 2a 3d 26 77 49 bd
       0.006314583 0.043815486 0.041536644 -0.049185894
0000a0 60 58 87 3c a0 8f 53 3d 72 cc 79 bd 24 2d b7 3c
       0.016521633 0.051650643 -0.06098599 0.022360392
0000b0 b0 5e 95 3b 00 e1 14 3d 9c 06 bd 3c 18 5a 6b 3d
       0.004558407 0.03634739 0.02307444 0.057458967
0000c0 80 9e a0 3b 58 5f fe bc 94 fe f4 3c 78 ed d4 3c
       0.004901707 -0.031051323 0.029906549 0.02599214
0000d0 74 a4 e5 bc 72 ea 5b 3d fc 55 60 3d e8 a9 79 3c
       -0.028032519 0.05369038 0.0547695 0.015238263
0000e0 0c a5 a4 bc f2 fe 72 3d 20 81 1a bb 4c 8f 38 3d
       -0.020098232 0.059325166 -0.00235755 0.045058534
0000f0 1a 45 41 bd bc 13 42 bd 10 70 c8 3c 70 ff ca bb
       -0.04718504 -0.0473821 0.024467498 -0.0061950013
000100 20 40 f8 3b 9e 4a 78 3d da 27 7c 3d 00 33 21 3c
       0.0075760037 0.060618035 0.061561443 0.0098388195
000110 68 f0 33 3c 4e 02 71 3d 80 90 1b ba 10 03 10 3d
       0.01098261 0.05884009 -0.0005934313 0.03515917
000120 7c 09 1e 3d e0 d7 66 3c cc 1f 22 3d 10 8f 1b bc
       0.038583264 0.014089555 0.039581105 -0.009494558
000130 c0 18 6c 3d 98 d4 49 bc d4 25 06 bd e4 62 23 bd
       0.05764079 -0.012318753 -0.03275092 -0.03988923
000140 ca 91 1b 3d c6 9c 6c bd d0 35 a0 3b 44 fb 7d 3d
       0.037980832 -0.0577667 0.0048892274 0.062007204
000150 9c 61 00 3d 60 67 7a bb 80 bf 2d 3a c0 d3 1c bd
       0.031343088 -0.003820859 0.0006627962 -0.038287878
000160 c4 6b 7e 3d 30 4f 8c 3b 02 1b 5d bd aa 83 6f bd
       0.062114492 0.004281901 -0.053980835 -0.058475174
000170 dc 98 ca 3c ec 7a b8 3c dc 93 71 bd f4 0f 61 bd
       0.024731092 0.022519551 -0.0589789 -0.054946855
000180 b0 2a 62 bc c2 aa 4a 3d 20 b1 b3 3b b8 71 6d 3d
       -0.013804123 0.049479254 0.0054837614 0.05796978
000190 32 7d 14 3d 70 59 55 3c 86 be 0d bd f0 ec 48 bd
       0.036252208 0.013021812 -0.034605525 -0.049054086
0001a0 80 aa 94 3b d0 95 a3 3c 44 db 18 3d e2 d2 0b bd
       0.0045369267 0.019968897 0.037318483 -0.03413666
0001b0 38 4b da 3c ac 6f 9c 3c b0 f6 6b bd 98 ca 10 3d
       0.026647195 0.019096218 -0.057608306 0.03534946
0001c0 00 d4 17 3c 00 79 a9 39 94 85 56 bd c8 08 51 3d
       0.009266853 0.00032324344 -0.052373484 0.051033765
0001d0 20 8f 8b bb a0 b5 66 bd 38 96 45 bc 9e c8 14 bd
       -0.004259005 -0.056325555 -0.012059741 -0.036324136
0001e0 48 7d 56 bc 08 1d 4a 3c ca 95 59 3d 16 39 73 bd
       -0.013091393 0.012336023 0.053121366 -0.059380613
0001f0 88 b4 8c bc 2c c2 16 bd 18 b2 46 3c 62 d6 02 bd
       -0.017175928 -0.03680627 0.012127422 -0.031942733
000200 90 75 1b 3d 60 16 20 3d ea 25 04 3d 58 4c 5b bd
       0.037953913 0.03908384 0.03226272 -0.053539604
000210 e0 98 1e bd 18 ae 9e 3c 3c ea d9 3c f8 6d 3a 3c
       -0.03872001 0.019370124 0.02660095 0.011378758
000220 6c 48 47 bd 28 48 ae 3c e4 74 ff 3c d0 08 75 3d
       -0.04865305 0.021274641 0.031183667 0.059822857
000230 96 e0 48 3d 98 fb 24 bd 46 0a 05 bd a4 43 3c 3d
       0.049042307 -0.040279 -0.0324805 0.045962945
000240 ac b3 ae 3c 38 3c 82 bc 54 5e b4 3c f8 94 c3 bc
       0.021325909 -0.015897855 0.022017635 -0.023874745
000250 2c d9 d2 3c ae a0 3b 3d 92 8e 5e 3d 38 16 06 bd
       0.025738321 0.045807533 0.054335184 -0.032736033
000260 f0 4d 2a bc 6e 2f 07 3d c0 b7 93 bc 6a 04 62 3d
       -0.010394558 0.033004217 -0.018031955 0.05517999
000270 2a c8 69 3d 50 fb cd 3c c8 b8 80 bc c0 5c 94 3a
       0.057075657 0.02514425 -0.01571311 0.0011319146
000280 30 68 2b bc 04 5b a0 bc a0 e9 9d bc c8 ac 04 3c
       -0.010461852 -0.01957465 -0.01927644 0.008097835
000290 b6 c8 53 3d 04 e4 c2 3c b4 44 88 3c 40 a3 11 3b
       0.051705085 0.023790367 0.016634323 0.0022222549
0002a0 38 3f 06 3c 94 3b 1b bd e0 3d d6 bb e4 dc ec bc
       0.008193783 -0.037898615 -0.006538138 -0.028913923
0002b0 68 85 e3 bc c2 25 67 3d b0 d6 97 3b 3e 8a 67 bd
       -0.027773574 0.056432493 0.004633747 -0.056528322
0002c0 e8 25 22 3d 00 6d f6 39 68 ea 31 3c a4 01 61 bd
       0.03958693 0.00047001988 0.010859109 -0.054933205
0002d0 28 81 53 bd 90 34 96 bb 20 86 05 bb b0 6d e2 bc
       -0.051636845 -0.0045839027 -0.0020374134 -0.027640194
0002e0 88 f2 3e 3d 9c c5 9a 3c a0 18 54 3b 6c 08 e9 3c
       0.046618015 0.018893056 0.003236331 0.028446399
0002f0 a6 18 29 3d 90 bd 86 bc 48 ea 27 bc 30 2a 5c bc
       0.041283272 -0.016447812 -0.010248728 -0.013437793
000300 50 6d 82 bc d8 58 35 bc ba ed 6c bd 06 25 79 bd
       -0.015921265 -0.011068545 -0.0578439 -0.060826324
000310 5e da 13 3d a2 60 77 3d e6 92 3a 3d 5c 6e 01 3d
       0.036096923 0.06039489 0.04555025 0.031599388
000320 24 5d 31 bd 80 17 82 ba a0 8f 0b 3c 6c 21 3b bd
       -0.043301716 -0.0009925216 0.00851813 -0.04568617
000330 10 97 b8 3b f8 db 74 bc 48 44 29 3d f0 92 50 3c
       0.0056332424 -0.014945023 0.041324884 0.012730345
000340 40 7b bb 3b 72 df 3d bd d8 b4 6e bd d6 fc 66 bd
       0.0057214797 -0.046355672 -0.058277935 -0.056393467
000350 a8 89 40 bc 40 78 d5 3b c4 0c 06 3d fc 87 3a 3d
       -0.01175157 0.006514579 0.032727018 0.04553984
000360 00 a2 4d 39 68 43 c9 bc 38 0b 5e 3c f2 01 4c bd
       0.00019610673 -0.024568275 0.013552479 -0.049806543
000370 b0 ae 83 3b 34 17 9d bc 30 ee 06 bd 00 9c fc b9
       0.004018627 -0.019176103 -0.032941997 -0.00048181415
000380 aa 9d 3a 3d e0 ee 4b 3b c0 00 4b bb 98 c2 ad bc
       0.045560516 0.0031117722 -0.0030975789 -0.021210954
000390 56 0c 14 3d f0 3a 77 bc 28 00 48 bd dc 02 12 3d
       0.036144577 -0.015089735 -0.048828274 0.03564726
0003a0 0e 95 1a bd 36 1b 10 3d 70 fb 36 3d 20 5f eb 3b
       -0.037739806 0.0351822 0.044673383 0.0071829706
0003b0 10 7c a0 bb 40 16 27 3c 54 e4 71 bd ac 25 8e bc
       -0.004897602 0.010198176 -0.05905564 -0.017351948
0003c0 90 03 57 bd 0c f9 81 bc 42 27 30 3d 14 e6 e0 bc
       -0.05249363 -0.015865825 0.04300619 -0.02745346
0003d0 b0 d3 b3 3b 60 a3 4b 3c 58 e9 24 bd 4e a4 13 3d
       0.0054878816 0.012429088 -0.040261596 0.036045365
0003e0 c2 9d 35 3d 08 3c 0d bc 92 89 67 bd 14 ad 9a bc
       0.044339903 -0.00862027 -0.05652768 -0.018881358
0003f0 68 47 57 bc 48 c2 28 bc e8 40 0d 3d e4 5e 42 bd
       -0.013139583 -0.0103002265 0.034485728 -0.047453776

backbone.network.3.bias f4 [128]
000000 f0 e5 94 bc 20 1e 6f bc d4 56 b8 3c 06 0d 79 3d
       -0.018176049 -0.014594585 0.02250234 0.060803436
000010 9c 9a b5 bc b4 22 ee 3c b4 3a 1e bd 50 bf ee bb
       -0.02216845 0.029069282 -0.038630202 -0.00728599
000020 e0 1e 67 bd 74 7c ff bc a0 dc cf bc 28 f0 29 bd
       -0.05642593 -0.031187274 -0.025373757 -0.041488796
000030 6a 7a 61 3d d4 45 0e 3d c0 7e d3 3c 24 30 bf 3c
       0.055048384 0.034734562 0.025817275 0.023338385
000040 42 45 4f 3d 4c ab 18 bd 80 67 03 3a b4 dc 6e bd
       0.05060316 -0.037272736 0.0005012676 -0.058315948
000050 20 06 33 3b 0a 58 08 bd 4c fb 14 bd a0 3b f4 bb
       0.0027316883 -0.033287086 -0.036372468 -0.007453397
000060 bc be 22 3d e4 37 1b bd 76 f8 7e 3d fc c7 e4 bc
       0.03973268 -0.0378951 0.06224867 -0.027927391
000070 82 10 23 3d b0 13 78 bc 74 01 fc bc 44 28 77 bd
       0.039810665 -0.015141413 -0.030762412 -0.060341135
000080 36 9f 58 3d 4e 84 76 bd 14 63 d8 3c f0 28 97 3b
       0.05288621 -0.06018477 0.026414432 0.0046130344
000090 a0 e7 d3 bc 38 ec 5c bc f6 ce 23 3d 3e 69 46 3d
       -0.025867283 -0.013484053 0.039992295 0.04844021
0000a0 ec 54 0e 3d da 11 7d 3d c8 3e 2f 3c a4 45 db 3c
       0.034748957 0.061784603 0.010696121 0.026766606
0000b0 c8 65 52 3c 18 21 d8 bc a8 0a 15 bc 58 4e da 3c
       0.012841649 -0.026382968 -0.009096779 0.026648685
0000c0 52 1b 59 3d 4c 7d ee bc 3c b8 2a bd da 99 46 bd
       0.05300457 -0.02911248 -0.041679606 -0.048486568
0000d0 9a 66 60 bd 7c 89 d5 3c d8 ce 16 bc d2 a1 04 bd
       -0.05478535 0.026066534 -0.009204589 -0.032380886
0000e0 12 c3 39 bd 78 6b 64 bc 52 6d 7a 3d 18 62 60 3d
       -0.04535205 -0.013941638 0.061139412 0.05478105
0000f0 62 3d 2c bd 62 0d 6a 3d 52 d1 63 bd 08 33 a7 bc
       -0.042050727 0.05714167 -0.055619545 -0.020410076
000100 d8 31 1c bc 44 94 60 bd 48 81 59 bc 2c 44 56 bd
       -0.009533368 -0.054828897 -0.013275452 -0.052311108
000110 9c 8f c4 bc 24 19 39 bd 44 15 bf 3c e8 b4 60 bc
       -0.02399426 -0.04518999 0.02332557 -0.013715006
000120 4a 9d 31 bd 0c bf 5d 3d 38 b1 91 bc b6 5c 1e 3d
       -0.043362893 0.054137275 -0.0177847 0.038662635
000130 14 f6 0f 3d 62 54 6c 3d 64 53 5e bd c8 18 4b 3c
       0.035146788 0.05769766 -0.054278746 0.012396045
000140 72 0c 59 bd 08 e1 f5 3c 26 1e 68 3d 80 28 65 3d
       -0.052990384 0.03001453 0.056669377 0.055946827
000150 10 c3 e1 3c 60 26 74 3c 94 aa ad 3c 68 47 f2 3c
       0.027558833 0.014901727 0.021199502 0.029575065
000160 ec 2f 6e 3d 6a b1 21 bd 40 4a 1b 3c ec ab 04 3d
       0.05815117 -0.039475836 0.009478152 0.03239052
000170 30 85 a2 bc 9c bb 4c bd 62 ed 0d 3d f0 e3 be bc
       -0.0198389 -0.049983606 0.034650214 -0.023302048
000180 f8 53 02 3c fa 2a 06 3d 40 4b 2e 3d 80 b4 aa 3b
       0.00795459 0.03275583 0.042552233 0.0052095056
000190 ea 5d 66 3d 00 fa 30 3d 02 86 56 bd 06 8d 2f 3d
       0.056241907 0.04320717 -0.052373894 0.0428591
0001a0 06 38 7b 3d 30 c1 c8 bc 40 e6 dd bb 22 da 71 3d
       0.061332725 -0.024506181 -0.0067718327 0.05904592
0001b0 44 73 d9 bc 98 ae 1c bd f8 68 2e 3d 5a 68 11 bd
       -0.02654422 -0.038252443 0.042580575 -0.035499908
0001c0 02 a3 1d bd 10 fa e3 3c bc de 43 3d 5c c9 f1 3c
       -0.038485534 0.0278292 0.047819838 0.029514961
0001d0 70 e6 bf 3b 02 27 3f 3d 2a ba 43 3d e2 eb 28 bd
       0.0058563277 0.04666806 0.04778496 -0.04124058
0001e0 64 2a 89 3c 50 a3 4a 3c 98 28 82 3c f0 d7 d4 3b
       0.016743846 0.012368038 0.015888497 0.0064954683
0001f0 88 83 5c bd 68 4f 2c 3d 94 b9 fd bc 40 9c 15 3b
       -0.053836375 0.042067915 -0.03097228 0.0022828728

backbone.network.6.weight f4 [128, 128]
000000 ef 40 fa 3a c3 d3 51 3c b1 d1 e9 bc 25 f3 37 bd
       0.0019092838 0.012806836 -0.028542371 -0.044909615
000010 99 55 98 bd 1f a3 f0 bc 5e c4 a2 3d 34 7a b4 bc
       -0.074382015 -0.029374657 0.0794761 -0.022030927
000020 10 a6 98 bd 2b 64 78 3b 80 59 4d bb 30 ef 27 3d
       -0.07453549 0.0037901502 -0.0031333864 0.04099959
000030 ac 73 21 3c b1 3e 82 3c 45 ad b4 bd db 51 18 bd
       0.0098542385 0.015899034 -0.08822111 -0.03718744
000040 31 fa 9f 3d e2 b2 27 bc a8 4a a4 bd e9 7e c9 3c
       0.07811392 -0.01023552 -0.08022052 0.024596648
000050 af 5f 86 ba 83 ac 87 bc a4 0a 0b bd 28 f4 b4 3c
       -0.0010251905 -0.016561752 -0.033945695 0.022089079
000060 23 88 be bb b3 a3 30 bc 4d c6 52 3c 71 8f 85 bb
       -0.0058145686 -0.010781216 0.012864661 -0.0040759374
000070 2e 1a a9 3c 48 64 cd bc 70 30 7c bc 43 14 af 3d
       0.020642366 -0.025072232 -0.015392408 0.085487865
000080 6d 98 b9 3c 58 3c a8 3d e2 5a 33 3d 9a 13 ce 3c
       0.02265569 0.08214635 0.043787844 0.025155831
000090 ea ec d9 3c 31 74 06 bd 5e 74 ac bd ba ef 0c bd
       0.026602227 -0.032825653 -0.08420633 -0.03440831
0000a0 d5 41 8e bd cd fc 8d 3d 56 b1 7b bb 02 34 2c 3d
       -0.0694615 0.069329835 -0.003840526 0.042041786
0000b0 3b d8 37 3c 3d 23 2e 3c f3 96 54 3d ed 0f f5 3c
       0.011220987 0.010628519 0.05190177 0.02991482
0000c0 bc 06 a9 bd bd 13 e2 3c 1d 2c a7 3d 4e 19 b4 bc
       -0.082532376 0.027597303 0.08162711 -0.021984722
0000d0 c1 60 28 bd 35 e5 ed bc d4 cd c3 bb 45 6d 93 bc
       -0.041107897 -0.029039958 -0.0059754644 -0.01799644
0000e0 57 64 59 bd 27 d6 44 bc 8d 2e 99 bd cb 6a b5 3c
       -0.053074207 -0.0120139485 -0.07479582 0.02214565
0000f0 dd 9b 69 bd 82 fa e0 bc 93 17 a5 bc 88 98 a1 3c
       -0.05703341 -0.027463201 -0.020152843 0.019726053
000100 98 6a 3c bd 81 b2 58 3d c0 99 05 3d a2 f7 13 3d
       -0.046000093 0.05290461 0.03261733 0.036124833
000110 47 3a a8 bd 81 60 49 bb c8 70 ec 3b 36 e6 da ba
       -0.082142405 -0.0030727687 0.007215593 -0.0016700688
000120 4e 2a 50 bd e8 79 82 bd c5 44 32 3d c1 5f a2 bd
       -0.050821595 -0.06370908 0.043522615 -0.0792842
000130 f9 72 95 3d 4a fa 98 bd e4 e7 b1 bd de f4 01 3d
       0.0729732 -0.07469614 -0.08686808 0.031727664
000140 ba 8b 73 3d 26 a9 21 bd 49 d3 99 3c ae e0 64 bd
       0.059459426 -0.039467953 0.018777506 -0.055878334
000150 ac dd 4b bd ff cd a3 3c 29 3f 29 3d cc d6 7c 3d
       -0.04977195 0.019995688 0.04132 0.061728284
000160 2b 6d ee bc 40 17 17 3d ee d7 16 3d fb 61 86 bb
       -0.02910479 0.036887407 0.03682702 -0.0041010357
000170 b7 cf 5a 3c cf e9 a4 bd 76 04 83 3b e0 f9 b5 bb
       0.013355187 -0.08052408 0.0039983345 -0.005553469
000180 20 74 8f 3d 76 f5 21 3d 36 f3 44 3d f6 9d 37 bd
       0.07004571 0.03954073 0.048083507 -0.044828378
000190 a0 54 10 3c 1f 7a d4 3c e5 03 0a 3d fc a0 25 3d
       0.008809239 0.025937138 0.03369512 0.04043673
0001a0 e1 74 a7 3b 70 11 34 bd 07 20 d1 bb 6d 99 66 3d
       0.0051103686 -0.043961942 -0.006381992 0.056298662
0001b0 11 7e 41 3b 4a 0f e8 bc 4f 72 db 3c 20 63 70 bd
       0.0029524604 -0.028327603 0.026787905 -0.058688283
0001c0 74 47 91 bc aa 1a c3 3c 93 3d 96 bd 7f 3b 5d 3d
       -0.017734267 0.023816425 -0.07335963 0.054011818
0001d0 fa 8d 89 bd 07 a0 c6 bc 10 b6 a4 3d 84 7f 2e bc
       -0.06716533 -0.024246229 0.08042538 -0.010650519
0001e0 eb 3a ac bd 15 b3 60 3d b8 44 90 bd 48 ea 25 bd
       -0.08409675 0.054858286 -0.07044357 -0.04050663
0001f0 de 08 55 3d f9 99 aa 3d 62 5a 3c bd c1 c9 40 3b
       0.05201041 0.08330149 -0.045984633 0.002941713
000200 31 5f 94 bd d2 92 ff ba 9b 35 7b bd 9d 6f 72 bd
       -0.07244719 -0.0019498712 -0.06133042 -0.059188474
000210 c0 49 37 bd e6 d4 0e bd 94 51 40 3d 9d db 5f bd
       -0.044748068 -0.034871005 0.0469528 -0.0546528
000220 57 12 42 bd e4 ef ae 3d d2 b8 a2 bd df ec aa 3d
       -0.04738077 0.08541849 -0.07945408 0.08345961
000230 37 c1 b2 3d 4b 66 30 3d d1 90 85 bd d5 9d 00 3d
       0.08728259 0.043066304 -0.06521762 0.03140052
000240 0b ba ee bc 07 ba 19 bc 59 dd 4e 3b 9f a4 57 3c
       -0.029141447 -0.009382731 0.003156504 0.013161807
000250 dd b0 03 bd 0e 90 23 3d 74 d4 b3 bd 56 0f aa 3d
       -0.03215109 0.039932303 -0.087807566 0.08303706
000260 fb 08 01 3d 50 87 11 3d 35 3f 31 3d 73 c6 29 3c
       0.031502705 0.035529435 0.04327317 0.010362255
000270 c7 f5 58 3d 84 db 00 3d 45 9e 57 3d f0 47 f6 bb
       0.052968767 0.031459346 0.052641172 -0.0075159
000280 b5 f6 54 bd 6f ab b3 3d 21 20 c6 bc 11 7c 2a bd
       -0.05199309 0.08772933 -0.024185242 -0.041622225
000290 fc e8 ae 3d 42 5f 9a bd 2e 17 1e bd 72 2e 12 3d
       0.08540532 -0.075377 -0.038596325 0.035688825
0002a0 b2 e1 23 3d 30 bb 6b 3c 8d c4 d7 3c 37 59 7d bd
       0.04001016 0.014387891 0.02633884 -0.06185266
0002b0 f6 1c 7c bd 11 53 49 3c a7 2d 87 bd 6e 69 6d 3d
       -0.061551057 0.012287871 -0.06600504 0.057961874
0002c0 82 b8 c2 3c d8 2a 51 3d 4f 43 e7 3c 4a 8f 50 bc
       0.02376962 0.05106625 0.028230337 -0.012729475
0002d0 25 5d b8 bc 66 70 84 bc 64 e7 98 bd 84 3a 6d 3d
       -0.022505352 -0.016166877 -0.07466009 0.057917133
0002e0 7a c8 a8 3d 42 cb 8a 3d b1 d4 83 bd 98 06 16 3c
       0.08241363 0.067770496 -0.06437052 0.0091568455
0002f0 27 14 35 bc 8c 3b ab 3d 68 70 1c bb 1c 3b 4e 3d
       -0.011052168 0.08360967 -0.002387071 0.05034934
000300 3d a6 39 3d bc 14 8f 3d b9 ee d9 bc 66 1d b2 3d
       0.045324553 0.06986377 -0.02660309 0.086970136
000310 da e7 0d bd 68 ff f7 3c 23 40 9c bd de a9 f3 3c
       -0.03464494 0.030273154 -0.076294206 0.029744085
000320 ba a9 0f 3d ed c5 45 3d 47 0e 2e 3d fb 03 52 bc
       0.035073973 0.04828446 0.042494085 -0.012818332
000330 42 a7 da 3c 29 1e 8c bd 43 3c 2a bd 66 8d c6 bc
       0.026691083 -0.0684169 -0.041561376 -0.024237346
000340 b3 c5 42 3d d4 8f b4 3d 38 1e 65 3d 08 73 77 3d
       0.047551822 0.088164955 0.055937022 0.060412437
000350 25 5c 33 bd 19 d9 9c bd d9 b2 b1 bd 3c de 7c 3d
       -0.043789048 -0.076585956 -0.086766906 0.061735377
000360 e0 2c 2d bd f2 76 29 3d d8 79 97 bc 41 cb f7 3c
       -0.042279124 0.0413732 -0.018490717 0.030248286
000370 38 99 1c bd c8 17 eb bc 87 10 df ba 80 e0 5a bd
       -0.03823206 -0.028697863 -0.0017018475 -0.053436756
000380 b8 a6 7d bd 3e c5 ef bc 4a eb 35 3b 17 8c 51 bd
       -0.061926574 -0.029268857 0.0027758651 -0.05115899
000390 4e d9 ce 3c c2 3d 60 bc 87 c4 a6 3d 4c 37 18 bd
       0.025250103 -0.013686599 0.08142953 -0.03716211
0003a0 13 bb a2 3d 7a 0f 5d 3d c0 69 9a 3d 9a 28 4a 3d
       0.07945838 0.053969838 0.075397015 0.049355127
0003b0 c2 da 9b 3d f5 3f 95 bd 2a 2a 28 3c ab a2 61 3c
       0.07610084 -0.072875895 0.010263959 0.013771693
0003c0 f6 09 e8 bc 65 ec 89 bd cd 61 0b 3d a2 38 97 bd
       -0.028325062 -0.06734542 0.034028817 -0.07383849
0003d0 25 0e 93 3d 33 bb 4b bd ae be b2 bd d9 93 99 bd
       0.07180432 -0.049739074 -0.087277755 -0.07498903
0003e0 66 7e 00 bd 16 53 0b 3c 26 6d a4 bd c4 2c 6c bd
       -0.031370543 0.008503696 -0.08028631 -0.05765988
0003f0 e6 de 9b 3d 84 ad 31 bd cd 26 35 bd c8 10 22 ba
       0.07610874 -0.043378368 -0.044226456 -0.000618231

backbone.network.6.bias f4 [128]
000000 24 25 f5 39 aa 75 70 3c c1 f6 3c bd e6 ee 4d 3d
       0.00046757713 0.014676491 -0.04613376 0.05027666
000010 04 1e 64 bd 65 66 83 3d ba ce 2f bc 17 db d3 bb
       -0.055692688 0.064160146 -0.01073044 -0.0064653265
000020 99 39 3b bd 38 8d 1a bd b7 37 09 bd 29 9b 30 3d
       -0.045709226 -0.037732333 -0.0335004 0.043116722
000030 c1 f8 75 3d 94 3e 0b bc da 25 5b bb 91 e8 81 3d
       0.060051683 -0.0084988065 -0.003343931 0.06343187
000040 41 db cd b8 9f 68 5a 3d 1d 54 50 bc cc 7e b3 bd
       -9.816001e-05 0.05332243 -0.012715367 -0.08764419
000050 37 4d 16 bc cb d4 ae 3d fb 69 b0 bd c1 3d 32 3d
       -0.009173683 0.08536681 -0.08613964 0.043515924
000060 ab 48 7a bd 15 09 65 3d c1 fe ac bd fe ac 73 3d
       -0.061104458 0.055916864 -0.08447028 0.05949115
000070 87 93 16 bd d4 62 42 3d 9d 1c 5d 3d fb f1 73 3d
       -0.036761787 0.04745753 0.053982366 0.059556942
000080 e1 f3 8c bc 23 f3 82 bc 30 e2 d2 bc 81 51 ac 3d
       -0.017206134 -0.015985077 -0.02574262 0.08413983
000090 a9 c7 7e 3d 93 71 80 3d d1 d4 0d 3d 76 aa b0 3b
       0.06220213 0.062716626 0.034626786 0.0053914143
0000a0 8b b0 05 bc 05 eb dc 3c 80 20 60 3c 2c a6 5f bc
       -0.008159767 0.026967535 0.013679624 -0.013650458
0000b0 c8 7a 9a 3c eb d5 4b bc 76 a6 0a bd 0b 98 82 bd
       0.018857375 -0.012441139 -0.033850156 -0.06376656
0000c0 26 e1 19 bd b9 cb b7 3c 7e e5 95 bc 7c 89 a8 3d
       -0.037568234 0.02243601 -0.018297907 0.08229348
0000d0 f1 05 d7 3c 00 6a 96 bd 9d f2 8d bd 5d 55 80 3d
       0.02624795 -0.07344437 -0.069310404 0.06266282
0000e0 b2 e0 fa bc 70 50 9b 3d 01 37 9f bc c4 10 27 3d
       -0.030624721 0.075837016 -0.019435408 0.040787473
0000f0 ae ca 12 3d 67 0f 2c bd 77 a4 f9 bc f6 5c c6 3c
       0.03583782 -0.042006876 -0.03047393 0.02421425
000100 f0 35 ad 3d 34 b7 66 bd b6 97 95 bc d8 6e 8a bd
       0.084575534 -0.05632706 -0.018260818 -0.06759423
000110 6a e6 91 3d f4 fd a5 bd 59 4a 94 bd f7 1c 21 bc
       0.07124026 -0.08105078 -0.07240743 -0.009833566
000120 50 2b 9b 3b 90 d2 8d 3d 3f 1e 68 3d 1d 56 bd 3c
       0.004735388 0.06924927 0.05666947 0.023112351
000130 e8 f9 9b 3d 38 bd a2 bd 2b e1 03 3c 8f 53 97 3d
       0.07616025 -0.07946247 0.00804929 0.073889844
000140 82 99 07 bc 9e 5f 5c bd f7 a0 4c 3d 61 1c 8a 3d
       -0.008276345 -0.053802125 0.049958196 0.06743694
000150 43 f4 7a bd e7 3d b4 bd ea 27 96 3b 32 66 91 3d
       -0.061268102 -0.088008694 0.004582395 0.0709957
000160 46 d2 8a 3d cf 2f 3f 3c 48 04 5a bd f0 0e df 3b
       0.06778388 0.011669113 -0.05322674 0.0068072006
000170 90 be 96 bd aa 26 b3 3d a5 3e 1c bc 3f 76 a2 bd
       -0.07360566 0.08747609 -0.00953642 -0.0793271
000180 9f b1 60 3d 69 9a 64 bc 55 fa 9e 3d 71 7b 05 3d
       0.054856893 -0.01395283 0.07762591 0.032588426
000190 8d a2 6f 3d 18 8f 89 3d ec ec b1 3d d5 1c 36 bc
       0.05850463 0.06716746 0.086877674 -0.0111152725
0001a0 f5 12 b2 3d 67 9c db 3c bf f1 a4 3d fd c4 0c 3c
       0.08695022 0.026807977 0.08053922 0.008591888
0001b0 32 4a b1 3d e7 2d 0e 3d 0e de 90 3d b2 00 07 bd
       0.0865673 0.034711745 0.070736036 -0.032959647
0001c0 33 c2 9a bc c4 70 c9 3c 1d 9c 92 bd c5 07 9e 3d
       -0.01889143 0.024589904 -0.071586825 0.07716326
0001d0 92 18 c6 3c 06 e2 47 3d 05 4c a1 bd 8e 16 19 3c
       0.024181638 0.048799537 -0.07875828 0.009343756
0001e0 99 37 35 3d d9 d5 69 bc 16 2a f6 3c 39 83 87 3d
       0.044242475 -0.014272177 0.030049365 0.066168256
0001f0 8d 16 70 bd 01 82 ea 3c a3 d2 96 3c 61 88 3c bd
       -0.058615256 0.028626444 0.018410986 -0.0460285

task_head.layer1.weight f4 [128, 128]
000000 dc 2f 86 bc c7 23 5f bd 97 3c 47 3d 72 fa 6d 3d
       -0.016380243 -0.05447748 0.048641767 0.05810017
000010 59 28 51 3d 7d 67 84 bd 2c 28 a5 3d 4f 5a 85 bd
       0.05106387 -0.06465051 0.08064303 -0.065113656
000020 0e 6c 7a 3d 7b 56 6c 3d 9b cb b6 3c e5 d9 94 bd
       0.061138205 0.05769966 0.022313884 -0.072681226
000030 19 1d 8c bd e3 fe bb 3d 89 ed e2 bc da 65 d6 bd
       -0.068414874 0.09179475 -0.027701156 -0.104686454
000040 c1 0c 83 3d 54 60 8c 3d fe a9 db bc 76 3f 0f bb
       0.06398917 0.06854311 -0.026814457 -0.0021857894
000050 38 fa 42 3d 43 b9 f9 ba 33 13 40 3d 6e 75 0b bc
       0.04760191 -0.0019052405 0.04689331 -0.008511884
000060 88 26 9a bd 8f 2f d4 3c 74 9b 4f 3d 22 36 f0 3c
       -0.075268805 0.025901584 0.05068536 0.029322688
000070 c4 23 de bb 9c 04 d6 bc 41 de ab bd 14 4b 96 bd
       -0.006779166 -0.026125245 -0.08392001 -0.07338539
000080 d4 4b d0 b9 de 48 b3 3d c2 42 5e 3d e1 76 b6 3b
       -0.00039729348 0.08754133 0.054262884 0.0055683707
000090 f8 3c ca bd 1c 3d 89 3d e0 e3 34 bd c8 b8 85 3d
       -0.0987491 0.06701109 -0.04416263 0.06529385
0000a0 85 4f 48 3d 16 f2 a0 bd 46 d1 58 bd f7 18 6c 3d
       0.04890396 -0.07858674 -0.052933954 0.057640996
0000b0 8b 38 ef 3c ca 06 18 bd ac 2c 7c bd c8 70 38 bc
       0.029201766 -0.03711585 -0.06156604 -0.011257358
0000c0 93 74 ff bc db 56 33 3d da 5a bc 3c 6b aa 00 3d
       -0.031183517 0.043784004 0.02299254 0.031412523
0000d0 ac 8f 01 bc f7 94 8c 3d ad 42 89 bd c4 ae 9d 3d
       -0.007907789 0.0686435 -0.067021705 0.076993495
0000e0 8f 61 95 3d 78 5f e5 bc 40 d3 40 bc f2 91 0e 3d
       0.072939985 -0.027999625 -0.011769116 0.034807153
0000f0 59 65 e9 3a 0b 72 a4 3d 36 40 56 bd 4e b3 71 bd
       0.0017806693 0.080295645 -0.05230733 -0.05900889
000100 c7 24 98 bd e5 2f a6 3d 2e b7 31 bd 35 83 b8 3a
       -0.0742889 0.08114604 -0.043387584 0.0014077189
000110 5a 5c 04 bd eb 4b 64 bc ac 71 87 3d 6e 2b 27 bd
       -0.032314636 -0.013934116 0.06613478 -0.040812902
000120 f8 67 25 bd a1 e8 8f bc b4 85 bf bc 17 f0 2e bc
       -0.040382355 -0.01756698 -0.023379184 -0.010677359
000130 28 b5 b4 bd a7 34 28 bd 7f 1e 85 3c ee 0a a4 3d
       -0.08823615 -0.04106584 0.016249893 0.08009897
000140 51 52 3a bd 9d 80 bd bd 2b 3c 98 bd 3e c4 23 3d
       -0.04548866 -0.09253047 -0.07433351 0.039982073
000150 02 c2 ae bc 6e 1c 68 39 f4 af 56 bd f0 69 a2 3d
       -0.021332745 0.00022135835 -0.052413896 0.07930362
000160 75 ed 21 bd 44 37 bc 3b 66 c7 c7 3d 7f 97 88 3c
       -0.039533097 0.005743893 0.09754829 0.016673801
000170 a3 c9 83 bd 03 be cc bb cb 99 a8 3b e8 01 3e bd
       -0.064349435 -0.006248237 0.0051452867 -0.046388537
000180 b2 bf 80 bd 5a 5d 71 3b b9 11 bc 3c a0 f6 69 bd
       -0.06286563 0.0036829324 0.02295767 -0.057119966
000190 0e 3c a9 bd 23 b3 24 bd 0b 6f 4b 3d bb 0b 8b 3d
       -0.08263408 -0.0402099 0.049666446 0.06789347
0001a0 fd 6c 56 bd 8f 10 87 3d 45 73 5b 3d 6e c9 90 3d
       -0.052350033 0.06594955 0.053576726 0.0706967
0001b0 92 19 f5 bc e8 20 30 3d d2 b7 0f 3d 8f 61 a0 3d
       -0.02991942 0.04300013 0.035087414 0.07831108
0001c0 0e ee a1 bd 2b b0 25 bd 21 10 86 3d 9c e4 e8 3c
       -0.079067335 -0.04045121 0.06546045 0.028429322
0001d0 46 97 55 3d a3 c2 27 bc 4e 24 23 bd f5 9f 84 3d
       0.05214622 -0.010239276 -0.039829545 0.06475822
0001e0 f5 13 ee 3c 0b a5 3a 3d 98 9f 6a 39 dc 52 dd 3c
       0.02906225 0.045567553 0.00022375432 0.02701705
0001f0 bb 25 02 bd 5d 2e 84 bd b5 d9 32 3d cf 2b c0 3a
       -0.031774264 -0.064541556 0.043664653 0.0014661493
000200 25 66 15 bc 72 fa 80 3d ad af a1 3d 8e 5b 1a bb
       -0.009118591 0.06297769 0.078948356 -0.0023553106
000210 1d 66 a5 3c 34 da 4d bd e2 43 7f bd 65 f3 ad bc
       0.020190293 -0.050256923 -0.062320597 -0.021234224
000220 c3 a2 b0 bd 60 fb d3 3c 44 31 99 bc a5 2a 9b 3c
       -0.08624794 0.0258767 -0.01870025 0.018941233
000230 75 e7 97 bd 53 8f 09 bd 9e be 8f bb 80 a7 36 3d
       -0.07417194 -0.03358395 -0.004386737 0.044593334
000240 b7 cd bf 3c 05 7a 37 3d c4 ff 4f 3d 14 cb a7 bd
       0.023413522 0.0447941 0.050781026 -0.08193031
000250 f8 a5 47 bd 42 6a a2 bd 54 68 ae 3c 20 ca 9c 3d
       -0.048742265 -0.07930423 0.021289982 0.0765574
000260 cf 20 52 bd 93 d0 c8 3c 82 f7 68 bd 15 ca 4d bd
       -0.05130082 0.024513518 -0.056876667 -0.05024155
000270 e3 cd b3 3d d0 7e a9 3d c4 28 6c bd 37 56 31 bd
       0.08779504 0.08276141 -0.057656065 -0.04329511
000280 56 6c 6e bd 43 9b 26 3d 6e cd b1 3c 68 15 62 bd
       -0.058208786 0.040675413 0.021704402 -0.055196196
000290 70 46 5b bd 89 c5 55 bd 5c c2 7e bd 1c dd 36 bd
       -0.05353397 -0.052190337 -0.062197074 -0.04464446
0002a0 42 03 20 3c 94 ce 7b 3c 4f 3d 58 3c a9 1b 9e bd
       0.009766402 0.015369076 0.013198211 -0.077201195
0002b0 ce 9d 9b 3d b3 bf 20 bd 86 fd 05 3d 6b 2c 48 3c
       0.07598458 -0.03924532 0.032712482 0.012217621
0002c0 25 cc 17 bd a1 9f d3 3c c0 40 0c 3d 14 4c 95 3d
       -0.03705992 0.025832953 0.034241438 0.072899014
0002d0 c9 09 0f bd 1c 2f 27 bd 16 e3 9f 3b c4 76 9a bd
       -0.03492144 -0.04081641 0.0048793657 -0.07542184
0002e0 ff 5e 58 3d 14 68 20 bd 8c 4b 26 3d 35 0e 0d bd
       0.05282497 -0.039161757 0.04059939 -0.034437377
0002f0 74 1c a2 3d 11 44 75 bd bd 56 9b 3d 81 9f 14 3d
       0.07915583 -0.059879366 0.075849034 0.036284927
000300 da ae 8e 3d 09 4a 9a bd 10 1c 22 3d 2d c2 5e bd
       0.06966944 -0.07533652 0.039577544 -0.0543844
000310 7c 4e 8a bc 53 56 b5 bb 46 e1 f0 3c ef 4c 66 bc
       -0.016883127 -0.0055339723 0.029404294 -0.014056428
000320 a8 71 a6 3d 1d 7d a9 bd db d0 9a bd 35 bd 91 bd
       0.08127147 -0.082758166 -0.07559367 -0.071161665
000330 40 66 49 3d e3 10 74 3d a9 bf 2a 3d 06 a6 40 3d
       0.04916978 0.059586417 0.041686688 0.047033332
000340 44 53 a3 3d 32 47 88 3d e9 23 3c bd 3d fe 76 bd
       0.07974866 0.066542044 -0.045932684 -0.060301054
000350 63 7a a4 bd 7c f4 85 bd 40 56 7e 3d 01 72 86 3d
       -0.08031156 -0.06540772 0.062093973 0.06564713
000360 fb ea 4f 3c 23 94 97 3d eb c7 cb 3c e5 d5 34 bb
       0.012690301 0.07401302 0.024875602 -0.0027593311
000370 1f 10 aa bc 5d 8f 80 bd a8 72 52 3d 3f a0 a2 3d
       -0.02075964 -0.062773444 0.051378876 0.07940721
000380 b4 64 2d bd 18 82 8b bc 9a 7b 15 bd f3 60 99 3c
       -0.042332366 -0.017029807 -0.03649483 0.018722987
000390 6e b3 17 3c cc ce 27 bd cd ab 57 bd bd 37 b0 3d
       0.009259088 -0.0409687 -0.052654076 0.08604381
0003a0 bc 3c b4 3d 48 a0 ae 3c aa 3d b5 bc 51 34 fb 3c
       0.08800647 0.021316662 -0.02212413 0.030664595
0003b0 c3 6e 5a 3d 44 33 83 bd ce f4 f4 bc fe bb b2 bd
       0.053328287 -0.064062625 -0.029901888 -0.08727263
0003c0 e8 93 ae 3d 3a 73 74 3c 5f 6e 44 3d 56 3e a8 bd
       0.08524305 0.01492005 0.04795682 -0.08215015
0003d0 1a 6d 95 3d 55 ce 5d 3d d2 ec b3 3d 68 e1 9d bd
       0.072962 0.05415185 0.08785404 -0.077090085
0003e0 36 39 86 3d 89 3d 11 3d 31 de f9 3c 49 fe 38 bd
       0.06553881 0.035459075 0.030501457 -0.04516438
0003f0 85 25 a8 bd 3e 2c dd 3c 0f 40 d7 3c 5f 79 7b 3d
       -0.08210281 0.026998635 0.026275663 0.061395045

task_head.layer1.bias f4 [128]
000000 c7 d1 dc 3c ea ab b0 bd 34 0d af ba 58 d3 6a 3d
       0.026955498 -0.0862654 -0.0013355375 0.05733046
000010 1d aa 99 bd 10 de 71 3d 95 3a 14 bd ed 55 77 3d
       -0.0750315 0.059049666 -0.03618868 0.06038468
000020 a0 cb 98 3d 97 b5 ae bd 1f b3 6f bc 67 d9 0e 3d
       0.074607134 -0.08530729 -0.014630108 0.0348753
000030 f6 c3 4c bb 58 5f 98 bd 6b 6c 96 bd 5c 76 f0 3c
       -0.0031244732 -0.074400604 -0.07344898 0.029353313
000040 96 36 1c 3a 98 80 45 bc b3 1f db bb d6 02 35 3d
       0.00059590617 -0.012054585 -0.0066871285 0.044192158
000050 e7 06 a6 3c 55 25 ae bd af ff f9 3c d2 f8 57 3d
       0.020266963 -0.08503214 0.030517427 0.052727528
000060 94 93 ff bc 28 26 d0 37 73 9f 5a bd 72 e3 a6 3b
       -0.0311983 2.48133e-05 -0.05337472 0.0050930316
000070 6e cc a0 3d d3 31 8e 3d 47 c6 bf 3d 0a 0e e5 bc
       0.07851492 0.06943097 0.0936399 -0.027960796
000080 f7 a3 a3 bd 65 d2 1e 3c db 4c 6a 3d 39 da b6 3a
       -0.07990258 0.009693717 0.0572022 0.0013950533
000090 bc 1c 99 3c da 8c a2 3d 2b c4 67 3c f2 6f 8c 3b
       0.01869046 0.079370216 0.014145891 0.004285806
0000a0 ee 50 35 3c 01 6e 1d 3c 00 ef ba bd 5b 62 bd 3c
       0.011066658 0.0096087465 -0.09127617 0.023118189
0000b0 18 31 04 3d 3b 75 ae bd b8 8f ea bc fb ec 99 bd
       0.032273382 -0.08518454 -0.028632984 -0.075159036
0000c0 3e 60 a4 bd b1 5e 65 bb 96 9c 5f bc 68 82 89 3c
       -0.08026169 -0.0034999067 -0.013648173 0.016785815
0000d0 ea f3 cd 3c ed 3d 76 3d 27 50 ed 3c d6 d6 82 bd
       0.025140721 0.06011765 0.028968884 -0.06388633
0000e0 b2 52 6f 3d 87 eb bb 3d 98 81 f1 bc 8f a3 89 3d
       0.058428474 0.09175783 -0.02948074 0.067206495
0000f0 f2 61 ca bc 8e c7 ce 3c 02 07 eb bb c5 74 90 3d
       -0.024704907 0.02524164 -0.0071724663 0.07053522
000100 d5 60 9b bc 3f a9 89 bd f1 2a 01 3d f5 49 9d 3d
       -0.018967072 -0.06721734 0.031535093 0.07680122
000110 88 29 98 bc cb 53 a3 bc 3b fb ae 3c 14 fc c2 3c
       -0.018574491 -0.019937417 0.02136003 0.02380184
000120 85 de 20 bd 98 8f cb 3c b7 fd cc 3c dd 32 a0 3c
       -0.03927471 0.024848744 0.025023324 0.019555504
000130 3f 07 54 3d 05 af cd bb 79 54 55 3d d7 07 73 bd
       0.051764723 -0.0062769675 0.052082513 -0.05933365
000140 7d 8e d4 3c c5 cb 0a 3c 4c 28 67 3d ea 6d 86 bc
       0.02594685 0.008471434 0.056434914 -0.016409833
000150 38 77 05 3c 98 4d 40 bc 57 33 8a 3d 77 7d 0b bd
       0.0081461 -0.01173725 0.067480735 -0.0340552
000160 2f c8 27 3d 71 34 10 bd 32 8f 7d 3a cd 4b 75 bc
       0.040962394 -0.035206262 0.0009672522 -0.014971686
000170 21 1b fb 3c 8a a3 c9 bc 55 17 0b bd 62 25 fe bc
       0.030652585 -0.024614114 -0.033957798 -0.031023685
000180 80 03 e9 b7 da f9 85 3b 8d 56 90 3c 0e 96 c4 3c
       -2.7777394e-05 0.0040886225 0.017619396 0.023997333
000190 f7 a7 69 bd e5 14 66 bc 77 b4 a6 3d bd 62 5a 3d
       -0.05704495 -0.014043068 0.0813989 0.05331682
0001a0 d1 64 69 3c 26 63 b2 bc 66 80 3e 3c d8 f1 49 3b
       0.014245228 -0.021775793 0.011627292 0.0030814316
0001b0 f7 1a f0 3b 8d 94 38 bd ed da 3a 3d 1d 5f 13 bd
       0.007327433 -0.045063544 0.04561894 -0.03597938
0001c0 4a 1e 5e bc 68 40 5b 3d c6 50 82 3d c8 1c 92 bd
       -0.013557026 0.05352822 0.063630626 -0.07134396
0001d0 b8 c6 53 3b 7e de 0e 3d fa ae 12 bc e1 ae 92 3d
       0.003231449 0.034880154 -0.0089528505 0.07162262
0001e0 2c db a9 3c 23 e9 ee bc 65 6a 5e bd 45 ad 66 bd
       0.020734392 -0.029163903 -0.054300684 -0.056317586
0001f0 1d f0 4b 3d 5b c9 92 3d 16 1b a2 bc 7c 16 43 3d
       0.049789537 0.07167312 -0.019788306 0.047628865
